Xs shape: (10000, 100, 100)
Ys shape: (10000, 3) [ 65 158  35]
Xs transformed shape: (10000, 100, 100, 1)
X_train shape: (8000, 100, 100, 1)
Y_train shape: (8000, 3)
X_eval shape: (2000, 100, 100, 1)
Y_eval shape: (2000, 3)
_________________________________________________________________
Layer (type)                 Output Shape              Param #   
=================================================================
conv2d (Conv2D)              (None, 98, 98, 10)        100       
_________________________________________________________________
activation (Activation)      (None, 98, 98, 10)        0         
_________________________________________________________________
max_pooling2d (MaxPooling2D) (None, 49, 49, 10)        0         
_________________________________________________________________
conv2d_1 (Conv2D)            (None, 47, 47, 10)        910       
_________________________________________________________________
activation_1 (Activation)    (None, 47, 47, 10)        0         
_________________________________________________________________
max_pooling2d_1 (MaxPooling2 (None, 23, 23, 10)        0         
_________________________________________________________________
conv2d_2 (Conv2D)            (None, 22, 22, 10)        410       
_________________________________________________________________
activation_2 (Activation)    (None, 22, 22, 10)        0         
_________________________________________________________________
max_pooling2d_2 (MaxPooling2 (None, 11, 11, 10)        0         
_________________________________________________________________
conv2d_3 (Conv2D)            (None, 10, 10, 10)        410       
_________________________________________________________________
activation_3 (Activation)    (None, 10, 10, 10)        0         
_________________________________________________________________
max_pooling2d_3 (MaxPooling2 (None, 5, 5, 10)          0         
_________________________________________________________________
flatten (Flatten)            (None, 250)               0         
_________________________________________________________________
dense (Dense)                (None, 50)                12550     
_________________________________________________________________
dense_1 (Dense)              (None, 20)                1020      
_________________________________________________________________
dense_2 (Dense)              (None, 10)                210       
_________________________________________________________________
dense_3 (Dense)              (None, 3)                 33        
=================================================================
Total params: 15,643
Trainable params: 15,643
Non-trainable params: 0
_________________________________________________________________
None
Train on 8000 samples, validate on 2000 samples
Epoch 1/200
  50/8000 [..............................] - ETA: 7:31 - loss: 0.2467
…
